target_model_well_trained.pth (torch, 250356 bytes, 10 tensors)

conv1.weight f4 [6, 1, 3, 3]
00000000: d871 bcbe 3378 303e 8754 2ebd 2e36 5abe
00000010: 8729 083e 6be4 0f3e 2bbf 44be f5e7 a43c
00000020: 1014 1c3d a7e9 48be f0d4 2a3e 9dd7 babd
00000030: 2261 2dbd 2d8f 87be 1911 21bd 584b abbd
00000040: 11e6 633d ee59 c3bd 67ea a33d f04e f23b
00000050: 018f 953d 7aa8 e5bd 0beb 1f3d f79c 353b
00000060: 065b ca3d ffa9 453c 4659 d03c b795 a33d
00000070: 7395 85be 0d6b fabc 0128 8b3e 3cce 20be
00000080: df42 3abe 2088 b33d deb4 693e f109 cf3d
00000090: efab e1bd 042c 4fbe 2fdb 9bbd 64ef 95bd
000000a0: c732 b6ba 516c ca3d 2067 153e 26f7 2a3e
000000b0: 802d 883c 3146 15be 3a68 023d 57ad a93e
000000c0: 867f fabd 474a 0fbf 75cc dabd 60a6 833e
000000d0: 8e34 44ba 9c90 61be
-0.36805606 0.17233352 -0.04256108 -0.2130973 0.13297091 0.14051978 -0.1921355 0.020130137
0.03810507 -0.19620381 0.16682792 -0.09123156 -0.04232896 -0.26476422 -0.039322946 -0.0836398
0.05563933 -0.09538637 0.08003693 0.007394664 0.073026665 -0.11213775 0.039042514 0.0027711967
0.098806426 0.012064456 0.025433194 0.0798754 -0.26090583 -0.030568624 0.27178958 -0.15703672
-0.18189572 0.08766198 0.22822902 0.10109318 -0.11019122 -0.20231634 -0.07610165 -0.07321051
-0.0013900631 0.09883941 0.1459012 0.16695842 0.016623259 -0.14577557 0.03183768 0.3314006
-0.122313544 -0.55972713 -0.10683528 0.25712872 -0.0007484638 -0.2202782

conv1.bias f4 [6]
00000000: 46f8 17be 7037 55bd d811 843d e501 02bf
00000010: 1804 9abd d6f7 79be
-0.14840803 -0.052054822 0.06448716 -0.5078414 -0.07520312 -0.24410948

conv2.weight f4 [16, 6, 5, 5]
00000000: aacc 86bc b499 77bd b634 86be fbfb 96be
00000010: 0ee2 cbbd 718c 28bd 3c1e 10be 6ffb c8bd
00000020: 924a 8a3d 4831 aabc 649f d3bc d58d 933c
00000030: 0d39 453e 26d6 f63d 0f1e 25bd 2020 8c3d
00000040: fab7 213d 1182 ca3d 22d1 063e 4a29 5a3e
00000050: 7002 b03d f87f a33d 7c8c 9d3c aecd cf3d
00000060: 6276 28be 7e0e 9d3d f6e8 a13d 2e73 9c3d
00000070: b1b8 fd3d f265 9cbd 3039 e0bd 9c15 f6bc
00000080: 639b 333e ef25 f1bd 0b12 1bbe 971d 263e
00000090: a285 8b3c 4131 d63d 47af 61bd d84c 323e
000000a0: 2811 093d 6189 133c 168c 2bbe eef2 1bbe
000000b0: 9a44 593c c538 a23d 47b9 67bd f749 60be
000000c0: 61a1 8cbe fcc8 893d a949 a3bb 50b1 253b
000000d0: ecbc 90bd b2b0 7abc 3a06 bb3d 3813 32bc
000000e0: f8c5 1d3d 8e5d cbbc 081b fb3d cab2 19bc
000000f0: b9e8 11be 6d56 23bd 5976 ec3d cd8b 8c3c
00000100: d6f8 55be 2155 29be ec74 f0bd c876 193e
00000110: db44 50bd 16c3 87be 927d 2dbe 139b 433d
00000120: b4cb 383e 6a14 823d 3589 8c3c 78c9 203d
00000130: 4ba6 523c c184 b7bd be84 c73d fa50 efbc
00000140: c16e 37bd 91d5 bbbd 7af6 1fbd 4ef4 1bbe
00000150: 1f8f 95be 5c1a 1bbe 9ffd 7abc fe73 36bd
00000160: dae9 803d f0d0 823e eecc bc3d 1a53 4abe
00000170: 7968 7c3d a88f 8a3e 4477 8fbd 89c1 5ebd
00000180: a279 88be da66 5c3e ef36 243e 5314 463c
00000190: c6ff 203d 8e79 873d d86f eb3b 943d fdbd
000001a0: e2bb 5b3d b55d 873d 8b52 dd3d 4738 803d
000001b0: 1a92 3dbd 30c0 18bc 16bd 30be 84f3 8abd
000001c0: 0a53 e6bd 22e4 2abe 3ee7 49be f5f1 e8be
000001d0: 2f60 f0bd 6eac 28be 89c3 bbbd dfc0 433d
000001e0: 2a87 24be 5c64 68be be3b abbe 4b2a 0dbe
000001f0: 5bee b9bc d9e1 f73d bf2e 833c a4ca 863d
00000200: bd1d 10bb 3318 21bf 410a af3d 4a28 43bd
00000210: 2d3a eabc a046 ebbe 57db 8fbe 0be8 383d
00000220: 7758 31be 6909 b6bd bde9 84bd 6d0e ba3d
00000230: 2112 303d 1bac 59bd d7a5 da3c b00f e33b
00000240: f7a8 01bc 18fd a73d ac8a 933d c11f e0bc
00000250: 4989 e93d d423 3ebc f451 23be 5193 87be
00000260: d364 54be 9336 bfbc 0a2a 5cbd fb03 6ebe
00000270: 4e52 8cbd 84a8 c43c 62f0 973d f084 2d3e
00000280: ce56 d43d ee0b d63c 461e 57bc dd0d 4d3e
00000290: 9697 863d 5ffc b93d 610b 603e f614 743e
000002a0: a480 563e 2d8c bb3d 86f6 db3b d359 6a3d
000002b0: 1e4e 6ebc e7b8 cc3c 8d0f 9f3d 8f2e f5bc
000002c0: c05b dbbd 14ec b63d 1cd3 ba3d 14af 183d
000002d0: 1a6a f13d 2b59 a03a 755f fb3d 53fc 8fbd
000002e0: c81e ca3c 3cac 28be 68a8 b8bd a8b6 6c3a
000002f0: f0ae d33d d5d9 70be 81f5 bcbe 4268 82be
00000300: d4bd c0bd 5622 bb3c 7d02 80be 778d a6be
00000310: 9dde f0bd 3c2a 3cbd 9ba6 b03d a12a 2abe
00000320: a1f9 5b3d c1b5 843d 6db4 61bc 92b1 1dbe
00000330: 766a 0bbe 9e9e 1ebe 0c1e 7bbe 01b8 edbe
00000340: 74a6 efbd e648 8f3d 8d75 323e 0edf 57bd
00000350: e993 24be a3cd 9ebd 96ca 9c3d bdab 7d3e
00000360: 8882 393d 6592 27be ecbb 28be 4613 1b3e
00000370: 7e3a 8e3e 8aef a6bb bf9d 16bb 2a29 cebd
00000380: f875 5b3e de8c 24be 98ec 4bbd b85f 4bbe
00000390: b456 49be f4c4 f6bc f242 473e 6d87 e93d
000003a0: 9e05 c7bc 8bcd b8be a746 b43d 179c 9d3c
000003b0: f35c 9dbd 3750 973d 0172 07bc 91b0 323d
000003c0: 2594 30bd c7c3 8bbd fed3 7f3d 1162 003e
000003d0: 44d8 f93d 37b5 4abe 6e7c 06bc f79e 143d
000003e0: 38a7 d83c 7407 abbd 1729 073e 593e 1bbd
000003f0: abef d2bd b2b3 cebd 9bd2 26bd cbc0 f5bd
-0.016455013 -0.060449317 -0.2621209 -0.2948912 -0.09955226 -0.04114956 -0.14074033 -0.09813582
0.067525044 -0.020775452 -0.02583284 0.018011967 0.19260044 0.12052564 -0.04031187 0.06842065
0.039482094 0.098880894 0.13165715 0.21304813 0.08594215 0.079833925 0.019232027 0.10146652
-0.1645141 0.0766878 0.07905762 0.07639156 0.12388743 -0.07636632 -0.10948408 -0.030039601
0.17539744 -0.117748134 -0.15143602 0.16222225 0.017031495 0.10458613 -0.055098798 0.17412126
0.033463627 0.009004922 -0.16752657 -0.15229389 0.013260985 0.07920984 -0.05657318 -0.21903215
-0.27466872 0.06727788 -0.004983146 0.0025282688 -0.07067284 -0.0153009165 0.09132047 -0.01086884
0.038518876 -0.024824884 0.12261015 -0.009381006 -0.14248933 -0.039877344 0.115460105 0.017156506
-0.20895705 -0.1653638 -0.11741051 0.14986718 -0.050846916 -0.26516026 -0.16942433 0.047755312
0.18046457 0.0635155 0.01715527 0.039254636 0.01285703 -0.08960868 0.097421154 -0.029213417
-0.044783358 -0.09171594 -0.039053418 -0.15229914 -0.29210755 -0.15146774 -0.015319257 -0.044544213
0.06294604 0.25550032 0.09218775 -0.19758263 0.06162307 0.27062726 -0.0700517 -0.05438379
-0.26655298 0.2152361 0.1603658 0.012089807 0.039306425 0.066149816 0.0071849637 -0.12365261
0.053645976 0.0660967 0.108067594 0.06260734 -0.04628191 -0.009323165 -0.1725963 -0.06784728
-0.11246307 -0.16688588 -0.19717118 -0.454971 -0.117370956 -0.16472027 -0.09168155 0.047791358
-0.16067186 -0.22694534 -0.33444017 -0.13785665 -0.022696665 0.12103624 0.016013501 0.065816194
-0.0021990382 -0.6292755 0.08546878 -0.047645845 -0.028592193 -0.4595232 -0.2809703 0.04514317
-0.17318903 -0.088885136 -0.064898945 0.09084783 0.04298604 -0.05314265 0.026690407 0.0069293603
-0.0079138195 0.08202571 0.07204184 -0.027358891 0.11403138 -0.011605222 -0.15949231 -0.2647958
-0.20741586 -0.023341453 -0.05375103 -0.23243706 -0.06851636 0.024006136 0.07418896 0.16945243
0.10368119 0.026128735 -0.013129776 0.2002482 0.065718815 0.09081339 0.2187934 0.23836121
0.2094751 0.09157596 0.0067127375 0.05721457 -0.014544992 0.024990512 0.07766638 -0.029929427
-0.10710859 0.08931747 0.09122297 0.037276343 0.117878154 0.0012233605 0.12274066 -0.07030549
0.02467288 -0.16471952 -0.09016496 0.00090299034 0.10336101 -0.23520596 -0.36906055 -0.25470167
-0.09411207 0.022843521 -0.25001898 -0.32529804 -0.1176121 -0.045938715 0.086255275 -0.16617824
0.05370486 0.06479979 -0.013775927 -0.15399769 -0.1361483 -0.15490195 -0.2452318 -0.46429446
-0.1170167 0.06996326 0.17427655 -0.052702956 -0.16072048 -0.07754066 0.07655828 0.24772544
0.0452905 -0.16364439 -0.16477937 0.15144071 0.27779 -0.0050944733 -0.0022982208 -0.10066445
0.2143172 -0.16069362 -0.04978618 -0.19860733 -0.19661981 -0.030123211 0.19459131 0.114027835
-0.02429467 -0.36094317 0.08802538 0.019239469 -0.07683744 0.07388347 -0.008266927 0.043625418
-0.04311003 -0.06824451 0.06245803 0.1253741 0.121994525 -0.1979569 -0.008208377 0.036284413
0.026446924 -0.08351031 0.13199268 -0.037901256 -0.10299619 -0.10092868 -0.040728193 -0.11999663

conv2.bias f4 [16]
00000000: aa50 28bd 56f7 19bd 9ff9 063c 1740 17bd
00000010: b482 15bd 6470 07be bba5 40bd 3332 27bd
00000020: 1d23 99bd ba93 8ebd 64b9 4b3c 16ab 51bd
00000030: aec1 22bd ce49 b3bd 6de6 f6bd cd33 d4bd
-0.041092552 -0.037589394 0.008238225 -0.036926355 -0.0365016 -0.13226467 -0.047033053 -0.040819358
-0.074774005 -0.0696177 0.012434337 -0.05118855 -0.03973549 -0.087543115 -0.12055669 -0.10361443

fc1.weight f4 [120, 400]
00000000: b234 19bd d8c4 5cbc 2bde 603e 3fc6 b93d
00000010: 055e a4bd c77d 57be e3bb 84be 2d35 c53d
00000020: c6e2 02bd 5f98 d1bb 8179 72be 00e1 57be
00000030: 9380 833d dade 673b f74c 48bd 5f61 0d3d
00000040: e6c8 e5bd b194 bebd f96c 75bd 5b56 f5bd
00000050: e1b5 b2bd 87e5 14be 3cfc dcbd 55c6 24bd
00000060: b74e bd3d f58a 313d 513a c83d 3115 9dbd
00000070: bb36 e93d 6f4c 873d 66ba 35be f9a3 603d
00000080: 9ca3 98bd 2b85 d83d 5eea 4bbd c18a 7ebe
00000090: e7f7 9e3d 869f 08be b7e6 9e3c 10d2 2c3d
000000a0: b078 d6bd 1888 b93d 0c63 a0bd 2490 14bc
000000b0: 1010 003d 71ee 473c d92a cc3c e61f 14be
000000c0: 4b35 913d ec0e a33d eb1a b3be d55f 10be
000000d0: eec6 45bd a121 e2bc 7652 a3bd 9cc0 58be
000000e0: 0430 fbbd 6247 3f3c 833f 103e 2682 57bd
000000f0: 2671 1f3e c62d 5f3e 3681 743e 0a5c 903e
00000100: e8a0 acbc fce5 fb3e bfa1 303e 65bf 103e
00000110: 8849 dfbc 6b2d 2ebc 98e6 b13d ee5a 473e
00000120: c5ea 0b3e 6bea 853d 71ee f8bd 31d0 633d
00000130: 8e10 d33d 6803 15bd 830c d33b f2a7 62bc
00000140: f498 aa3d 7d69 06bd 5244 ecbc 4492 22bd
00000150: 8f45 8bbd c355 e7bc 2a5e 3e3e b6cc c13d
00000160: 6800 ef3d ec07 e83d b6f2 cc3d 7444 033e
00000170: 02ca 253e 11ba bb3d 42e1 d73e 115d 993d
00000180: 878b d03d 85ed 4c3d 4a6a 633e accf 313e
00000190: 00ad 053e e4ad bf3d e201 4b3e d201 bf3d
000001a0: 515a 133e acaf 9abe ef63 edbd eb29 33be
000001b0: e5ff 45bd f82c e0bd 0582 4abe 96cf 60be
000001c0: ecb1 1dbe c0aa b1bd f930 92bc 8ce9 873d
000001d0: 37d8 c6bd 520e 77be 0579 133d 329e 6b3d
000001e0: 6c7f c7bd b7f4 773d 71cc 05be 4d7d 913d
000001f0: 6f2e 3b3e 48f5 16be 8e5b 6dbe 58e5 3dbe
00000200: c5b4 0bbd f663 7e3d 14fc aebe 35ac 19be
00000210: 05d5 f13d 3a67 01be fb90 793d 4ec9 b5be
00000220: 8557 8e3d 5acf 08be e023 93bc 1b38 a83a
00000230: bb90 0ebe 86c0 0b3d 9b82 63be 1aa9 9abe
00000240: ddcd 013c 62ec 39be 235d 14bd 3915 163d
00000250: dda4 1bbe 1e35 a9bd bf8b d93e 2b98 ba3e
00000260: 0a46 963e fc70 00bd b837 1cbe ec82 803e
00000270: f6c3 503e a3f2 cc3d b27f c0bc 6346 823e
00000280: 8538 ebbd 1c4f 46bd dbc1 2cbd 12cb e73d
00000290: 9dd4 b0bb bcd7 e1bc 7b03 433d 14f5 ba3d
000002a0: 2dfc 7f3b ea70 8ebc bf5e 033d 48bf 6dbc
000002b0: 51b6 55bb 0039 0abd 1d21 4ebc 8801 bc3e
000002c0: 044c 9f3e 975c f33d 8846 003d 1405 f5bd
000002d0: 60c7 193f 610a 5f3e c6c3 cd3d 942f 393d
000002e0: 7cc3 223d 90aa 783e 222e 2c3d baa3 0bbe
000002f0: fb34 7d3c 0d3e 8e3c 3213 5fbc 1d29 d13d
00000300: 5c33 86bb 997e a3bc 57cc 013e bb76 0bbc
00000310: 56be 1ebc b564 2abe 9bad 913d a79b f3bc
00000320: 1623 9e3e 07c1 ad3e fcad 993e 2c60 813d
00000330: deea 743d 7818 5ebc 0b48 59be 6ca8 a7bd
00000340: 4a73 5b3d 6970 9bbd be08 04be 00b4 31be
00000350: d57d adbd 20cb 33bd 8684 85bc 861d 7abe
00000360: 2f8c 39be d071 8abd 4814 4abd 8568 21bd
00000370: 4505 17bd 550a d1bd 7eaa dcbd 2854 b3bd
00000380: aea4 b2bd 1434 9a3e 59fc 813e c9a4 223e
00000390: 1228 1a3e c601 3b3d b73a 5ebe 0527 3bbd
000003a0: 2751 84bd 995a c13c ed02 4e3e 4c47 c4bc
000003b0: 1a8e 5fbc f83d 03bd e7bc e2bd 7e03 c03c
000003c0: 1fcf c8bd a60e 803e ae9f 0f3e b0ed a0bd
000003d0: 7148 9b3d ec30 093d b951 85bc 07b2 79be
000003e0: bb25 363d b690 9a3e 468a 0dbe 5b62 72bd
000003f0: 2f17 31be 1e19 51bd 291e 01bd 5e0a 53be
-0.03740377 -0.013474666 0.2195975 0.090710156 -0.08025745 -0.21044074 -0.25924596 0.09629283
-0.03195455 -0.006396338 -0.23679163 -0.21081924 0.06421008 0.0035380633 -0.048901524 0.03451669
-0.11219959 -0.093057044 -0.059918378 -0.119793616 -0.08726097 -0.14540683 -0.107902974 -0.040228207
0.09243529 0.04334541 0.09776748 -0.076700576 0.11387392 0.066063754 -0.17746887 0.054843877
-0.07453081 0.10572275 -0.049784057 -0.24857618 0.07762127 -0.13342103 0.019397123 0.04219252
-0.10472238 0.09059161 -0.07831392 -0.009067569 0.03126532 0.012202845 0.024922775 -0.14465293
0.07090243 0.079618305 -0.34981474 -0.14099057 -0.048285417 -0.027603926 -0.079747126 -0.21167225
-0.12265018 0.011674734 0.14086728 -0.052614354 0.15570506 0.21794805 0.23877415 0.2819522
-0.02107282 0.49198902 0.17249201 0.14135511 -0.027256742 -0.010630946 0.086865604 0.1946828
0.13663776 0.06538852 -0.12154854 0.05561847 0.10305892 -0.0363802 0.0064407005 -0.013833987
0.08329955 -0.032815445 -0.028841171 -0.03969027 -0.068003766 -0.028239137 0.18590608 0.09462874
0.11669999 0.11329636 0.10007231 0.12819082 0.16190341 0.09166349 0.42164046 0.07488454
0.10182863 0.050031204 0.22208515 0.17364377 0.13054276 0.09359339 0.19824937 0.09326519
0.14389922 -0.30212152 -0.115913264 -0.17496459 -0.048339743 -0.10946077 -0.19776161 -0.21954188
-0.15399903 -0.08675146 -0.017845618 0.066363424 -0.097092085 -0.24126557 0.036004085 0.057523914
-0.09741101 0.060536113 -0.1306627 0.07103977 0.18279432 -0.14742005 -0.23179457 -0.18544519
-0.034107942 0.06210705 -0.34176695 -0.15007098 0.118082084 -0.12637034 0.06092928 -0.35505146
0.06950287 -0.13360348 -0.017961442 0.0012834104 -0.13922398 0.03411915 -0.22217791 -0.3020714
0.007922617 -0.18156579 -0.036221635 0.036641333 -0.15199609 -0.082620844 0.4248943 0.3644422
0.2935031 -0.03135775 -0.1525563 0.25099885 0.20387253 0.10007217 -0.02349839 0.25444326
-0.114853896 -0.04841529 -0.042177062 0.113180295 -0.005396439 -0.02756869 0.04761074 0.09128776
0.003906022 -0.017387826 0.03207278 -0.014510937 -0.003260989 -0.033745766 -0.012581137 0.36719918
0.31112683 0.118828945 0.031317264 -0.11963859 0.6006985 0.21781303 0.100471064 0.04521139
0.03973721 0.24283814 0.042036183 -0.13636675 0.015454526 0.017363572 -0.013615416 0.1021292
-0.004095478 -0.019957827 0.12675606 -0.008512194 -0.009688934 -0.16639979 0.07113191 -0.029737307
0.30886143 0.3393633 0.30015552 0.063171715 0.0597943 -0.0135556385 -0.21218888 -0.08186421
0.053576745 -0.075898 -0.1289396 -0.17353821 -0.08471266 -0.043894887 -0.016298544 -0.24425325
-0.18119882 -0.06759989 -0.049335748 -0.03940632 -0.03687026 -0.10207049 -0.10774706 -0.08756286
-0.087228164 0.30117857 0.25387838 0.15883173 0.15054348 0.04565599 -0.21702085 -0.04569151
-0.06460791 0.02360277 0.20118304 -0.023959778 -0.0136447195 -0.03204152 -0.110711865 0.023439165
-0.0980513 0.25011176 0.14025757 -0.07857835 0.075821765 0.03349392 -0.01627432 -0.24384318
0.044469576 0.3018853 -0.13822278 -0.05917583 -0.17294 -0.051049344 -0.031522904 -0.20609424

fc1.bias f4 [120]
00000000: f180 b2bc 5c5b f33d 2fb1 d43d 422d a93d
00000010: bcbb a83e b986 813e a093 c93d 7114 30bd
00000020: 9b6a 06bd 80fb 0fbc ebb4 433e 53fe 9ebc
00000030: c35a 853c 57fd 863d 66be 2abe 4f49 0abe
00000040: bf02 94bc 99a7 89bd 62bd 2cbe 2a36 963d
00000050: bea3 15be 5c95 3ebd ff94 f3bc 9691 d1bd
00000060: a6cd abbd dcdc b73a f29d 363e ae53 2ebd
00000070: 41cc babd a53b 313e c838 0f3e c452 abbd
00000080: b860 6abd 2c69 69be 8532 7fbe f346 723e
00000090: b038 313e 2734 f3ba 9489 bd3d f3dd 133e
000000a0: 49c2 a2bd b5d5 e2bd cd60 04be 8b21 95bd
000000b0: 3d3b b4bc acaa ff3d fce2 1f3d 4016 e2bd
000000c0: 34c4 fa3d 4f06 14be ca79 febc 4ab0 f7bd
000000d0: e615 a8bd 0456 4c3d a0a1 403c b8b8 b33d
000000e0: 9e7a c63d 75ba 253e 6d6e 3bbe 4942 243e
000000f0: b0af 34be 8253 2d3e d721 3cbe 267f a53c
00000100: dc84 393e e4ef babd 9b03 36be 3030 f0bd
00000110: ba96 8bbd 30cd e2bd c33a 1a3d 5908 ef3c
00000120: a4ac 6c3d 2c42 573e 2ce1 fb3d 197f 5fbe
00000130: 54df 7b3d 8b57 4f3e 73ed 4e3e 4367 84be
00000140: 4302 643d caff 17bd cf67 a03d 8d1a e9bd
00000150: d6f1 79bd 6753 883e 24a1 28be 1d2e 31bc
00000160: 9331 5c3d a563 03bc 0306 9c3e 99a3 9fbd
00000170: ac2f 023d 8793 38bc 4975 9abd 20ff ab3c
00000180: d94d 55be 3ee9 513d d4b9 133b a497 95be
00000190: 6319 793e 4099 78bd 4bb5 003e 7153 f3bd
000001a0: 8dbe d23d 39fd cfbc 5a02 8b3d 44b0 0cbe
000001b0: 2551 25be b7b9 af3d 571c e0bd 8462 c63d
000001c0: 51e1 43be 84c8 dc3c 983c 19bc ed7c 18be
000001d0: b51f 73be db96 133e e08b dd3c ec64 89be
-0.02179 0.1188266 0.103853576 0.08260585 0.3295573 0.25298098 0.0984261 -0.042988244
-0.03281651 -0.00878799 0.19111983 -0.01940838 0.01627863 0.065912895 -0.16674194 -0.13504528
-0.018067716 -0.0672142 -0.16869119 0.0733455 -0.14613244 -0.04652916 -0.029734133 -0.102328464
-0.08388834 0.0014027613 0.17833689 -0.042560272 -0.091209896 0.17307909 0.13986504 -0.08365396
-0.057221144 -0.22794026 -0.24921615 0.23659877 0.17306781 -0.0018554971 0.092547566 0.14440136
-0.07947213 -0.11075918 -0.12927552 -0.072817884 -0.022000903 0.12483725 0.03903483 -0.110394
0.12244454 -0.14455532 -0.031063933 -0.12094171 -0.08207302 0.04988672 0.011757284 0.08775467
0.09691356 0.16184409 -0.18303843 0.16040911 -0.17645144 0.16926387 -0.18372284 0.02020223
0.18117088 -0.09127787 -0.17774813 -0.11727941 -0.06815858 -0.11074293 0.037653696 0.029178785
0.05778183 0.21021336 0.122988075 -0.21825828 0.06149228 0.20248239 0.20207767 -0.25860032
0.05566622 -0.037109174 0.078323 -0.11382017 -0.06102165 0.2662613 -0.1646772 -0.010814217
0.053758215 -0.008019363 0.30473337 -0.07794876 0.031783745 -0.011265642 -0.075419016 0.020995677
-0.20830478 0.051247828 0.0022541182 -0.29217255 0.2432609 -0.060693026 0.12569158 -0.118811496
0.10290251 -0.0253893 0.06787558 -0.13739115 -0.16144235 0.08580344 -0.109429054 0.09686759
-0.1912892 0.026951082 -0.009352826 -0.14891405 -0.23742564 0.14413016 0.027044237 -0.2683481

fc2.weight f4 [84, 120]
00000000: e7bc f6bd ff81 a93d c2bc 82bd e535 943e
00000010: a9df ae3d b19f 073f d6ba cd3d a1b0 d03d
00000020: 2adf 813d f2b1 81bc 3043 403c a13f 9b38
00000030: ae13 573d 2940 53bb f0fd d5bc aa4b 2fbe
00000040: ec16 e6bd 1cec bfbc 900c 7bbe d502 ed3d
00000050: eab5 d13d a48f 8abc af4b 213c 7560 623d
00000060: 4f64 54be 54a5 c53d 8dbd 313e 1ebe 1a3e
00000070: 1ffa 1bbe 2d26 563e c854 c4bd adc3 1f3d
00000080: f7d8 3b3b 8f44 92be bf26 d7bb 4b9f 143d
00000090: 5bf2 663d 7508 f4bc ef45 013e 8a9f 1a3e
000000a0: bc37 96bd 7d42 8abd 7a93 97bb 6a40 3c3d
000000b0: 4758 d13d ec2f cebd b922 263e 9380 4bbd
000000c0: 4ce6 44bc a667 e3be ef47 1fbe 96d5 4dbe
000000d0: 200d cb3b fb42 d23d 7f85 533e 20f7 f4bc
000000e0: 6c2d 3d3c 8202 283e 7984 2abe 3f93 d1bd
000000f0: 0139 21be 2f11 a63c e603 afbc 6f50 2abe
00000100: 4af0 803c 58d9 36bd d956 27be cd67 dcbd
00000110: 7c8b bcbd bb1e a6bd 5924 c7bc d993 b5bd
00000120: 420f 063e ea96 2e3e dcb2 b6bd ce87 cbbc
00000130: b73d 96bd 16f5 a1bc f627 673e 5d1a 073e
00000140: e608 b13d ad34 9bbd d5cb f73d 184b 553d
00000150: 50e9 04be 846e 4c3d b6e6 ecbd b36e 70bd
00000160: 66d8 54bc d65d 123b 7767 833e 0e04 983c
00000170: 18a1 b0bd 95da b23b 8ab9 493d d344 9e3c
00000180: bd85 1ebd 5200 f33c a262 693b fea4 b4bd
00000190: 58cc d03d bfcc c23d 86bf 1f3e 74bc 1c3d
000001a0: d6f6 d73d 5161 19be 1fa1 a0bc 28f4 e13d
000001b0: f981 a8be 2d9e 603e 02d6 7e3e d336 07bd
000001c0: c33a 54bd 4afb 8539 4d42 97bd 5fcf 803c
000001d0: 0a44 31be cf93 003f fe18 15be 661f 3bbd
000001e0: 8b78 013d f0ed 653b 0543 223d 9ebc 8bbc
000001f0: 08fe 4fbd 46e9 f23b d065 e83d e6a6 9d3c
00000200: fe58 00bf ce38 863d 4060 a1bb 6650 fa3c
00000210: de8f 553d e188 65be ddc4 4dbd c179 dabc
00000220: 68ab d03d af31 4b3d bef8 4c3c 581c b0bd
00000230: 09c1 403d 4233 03bd fd1e 77be fa38 91bd
00000240: 1f7f f0bb b974 2ebe 2fab 7d3e 9396 d5bb
00000250: 922a 453c 3045 b0bd cf67 06bd b3c6 84bc
00000260: 5ae8 37be afc8 0ebc 179d dcbd fa0b 4dbd
00000270: d1e6 ccbd 4e86 42bd 5e47 4a3e f9f2 13bd
00000280: 01d5 263d 8285 9e3d f777 04be 62d1 953c
00000290: 0fb6 a73d 84e3 f0bc c42e 84bd e9a9 e23d
000002a0: bfd8 e8bd a249 0b3c 396b 7e3d 2b56 d7bc
000002b0: aa9e 5bbe 25ce b43d 9590 6dbd 0c80 c4be
000002c0: 953d 0abd b052 c4bd 1a3b 2d3e 8e67 8b3c
000002d0: fd69 953e 5f93 533e 1e41 88bd ad3b 6ebd
000002e0: 672a 65be d65b 0f3e 6519 573d 4b08 d8bd
000002f0: ba22 2a3f 316e fb3d 56fb 79bd e94b 0abe
00000300: 19de 6bbd fe00 793c b071 91bc 273e 433d
00000310: 04e5 32be 48a2 7cbd 6e4b 3fbd daaf 7dbc
00000320: 5c1c babe 1a7a 283c 7907 2ebe 8b4d 8abc
00000330: 13b3 b93d 0d15 193d 825b 1dbd 1b35 df3d
00000340: d95f c8bd 8ac0 b2bc ab32 b4bd 4e3b 30bc
00000350: 1164 263d e156 363c 9a44 febd 51ec 0fbc
00000360: 6585 eb3d 9470 a6ba 3690 683d f4f2 043c
00000370: ffb8 083e aba5 a4bc f0ee 43bd 81c6 75bd
00000380: 6727 8dbd 6dba f53d 64ed f7bc 9726 a13c
00000390: 635b 6e3d 89fe 2d3d 3c83 bcbd 07de 193d
000003a0: ace7 303e dc74 76bc 2bc4 cb3d 64ef edbc
000003b0: 67f6 9a3d 5e50 f13c d60c 113e ec1b aa3d
000003c0: c7ba 15bd da7e 733d fec4 a4bd 69d7 3839
000003d0: 60ab fe3c 8673 a53d eba6 c0bd 1afa 343d
000003e0: b32a 043e 8d71 e7bb 3697 0abd d074 dd3d
000003f0: 728e bc3d 9047 623d 7658 a53e d322 553d
-0.12047749 0.08276748 -0.06383659 0.28947368 0.085387535 0.52978045 0.10045402 0.10189939
0.06341393 -0.015831921 0.011734769 7.402828e-05 0.052509002 -0.0032234287 -0.026122063 -0.17118707
-0.11234841 -0.023428015 -0.24516511 0.11572806 0.102397755 -0.016914196 0.0098447045 0.05526777
-0.2074139 0.096506745 0.17357464 0.15111586 -0.15232132 0.20913 -0.09586483 0.03900497
0.0028663257 -0.2856793 -0.006565898 0.036284726 0.056383472 -0.029789189 0.12624334 0.15099922
-0.07334849 -0.06750963 -0.004625735 0.045959868 0.10221916 -0.10067734 0.16224183 -0.049683165
-0.012017798 -0.44415015 -0.15554784 -0.20101008 0.006196633 0.10266682 0.20656393 -0.029902995
0.011546474 0.16407207 -0.16652097 -0.10233163 -0.15744402 0.020271866 -0.021364164 -0.16632245
0.015739579 -0.04464087 -0.16341724 -0.10761986 -0.09206292 -0.0811133 -0.024309324 -0.0886609
0.13091758 0.17049757 -0.089208335 -0.02484503 -0.0733599 -0.019770186 0.22573838 0.1319365
0.08644275 -0.075784065 0.12099425 0.052073568 -0.12979627 0.049910083 -0.11567442 -0.05869932
-0.0129910465 0.0022333763 0.25664875 0.01855662 -0.08624476 0.005458186 0.04924921 0.019319927
-0.03870176 0.029663239 0.0035611768 -0.08820532 0.101952255 0.095117085 0.15600404 0.03826566
0.10545127 -0.1497853 -0.019608079 0.11032897 -0.3291166 0.2193534 0.24886325 -0.03301127
-0.051813852 0.00025554962 -0.07385693 0.015723882 -0.17311111 0.5022554 -0.14560315 -0.04568424
0.0316091 0.0035084449 0.039614696 -0.017057713 -0.050779372 0.0074130623 0.11347544 0.019244622
-0.5013579 0.065538034 -0.004924804 0.030555915 0.052139156 -0.22415496 -0.05023657 -0.026669385
0.10188943 0.04960793 0.012510477 -0.08599156 0.047059093 -0.032031305 -0.24132915 -0.070909455
-0.0073393728 -0.17036714 0.24772333 -0.006518194 0.012034075 -0.086069465 -0.032813843 -0.016208028
-0.17959729 -0.008714839 -0.1077215 -0.05006025 -0.10004962 -0.047491364 0.19753787 -0.03612039
0.04073048 0.07740308 -0.12936388 0.018288318 0.08189022 -0.029405363 -0.06454232 0.11067564
-0.11369466 0.008501442 0.062113974 -0.026286205 -0.21447244 0.088283814 -0.057999212 -0.38378942
-0.033750135 -0.09586084 0.16917077 0.017017152 0.29182425 0.20661686 -0.06653045 -0.05816238
-0.22379456 0.13999876 0.052514452 -0.10548457 0.6645924 0.12276877 -0.06103071 -0.1350552
-0.057584856 0.01519799 -0.017754406 0.047666695 -0.17470175 -0.0616782 -0.046702795 -0.015483821
-0.3634976 0.0102830175 -0.16995038 -0.016882678 0.09067359 0.03737359 -0.038417347 0.10898801
-0.097839065 -0.021820325 -0.08798727 -0.010756327 0.040622775 0.011129112 -0.124154285 -0.00878437
0.11500052 -0.0012698346 0.056778155 0.008114565 0.1335182 -0.020098528 -0.04783529 -0.06000376
-0.06892281 0.119984485 -0.030264564 0.019671721 0.058192622 0.04247907 -0.092047185 0.037565257
0.17275876 -0.01504251 0.099495254 -0.029044814 0.07566529 0.029457267 0.14165053 0.08306107
-0.036555078 0.059447147 -0.08045386 0.00017627854 0.031087577 0.08078675 -0.09406837 0.044183828
0.12906913 -0.007063097 -0.033835612 0.10813296 0.09206857 0.05524403 0.32294053 0.052035164

fc2.bias f4 [84]
00000000: e9c1 1b3d d9bc 5fbe db35 70bd 9fbb 82be
00000010: 6ed8 873c 6a19 92bd d928 a33c f947 a8be
00000020: 926f 23be 9084 6dbe ab73 b9bd 2736 c1be
00000030: b13f 9ebe 29fb 25be 7957 a13e 9be0 87be
00000040: fd1f 56be 11be d6be b266 743e 8ce4 8ebe
00000050: c883 14be 2be5 803c e6ff cabe e4a1 90be
00000060: b99f 2c3d 5ccc 4d3c 40f3 ddbc 35d0 aabe
00000070: bf7d c1bd 26e8 fcbd 4402 493e 23b7 b43d
00000080: beec a03d cde8 5f3e af8f 41bd df13 c9bc
00000090: 013d 0abe 386a 50be d4e5 e03e 73a4 a0bd
000000a0: 4d33 a13e bd1c 73be 5d70 16be 451c 013e
000000b0: 8f21 d5bd 6f61 913d 591b 41bd 1658 2cbc
000000c0: 4864 493d ad41 f0be 7ee6 a3bc fce7 e0bb
000000d0: 1c80 f03d a2a7 46be 09cd 10be 5f83 cebd
000000e0: e7f6 0dbc e2ca 7fbd 3ef0 e1bd 8196 c4bd
000000f0: 1430 b5bd 5896 1ebe 4ba8 debe 00c0 be3e
00000100: c83f 36be 76f6 dd3d 5a7a 5dbe 27b9 b13e
00000110: 6bf8 7e3e 2131 a8be 769a c6bc 332e eebc
00000120: c70f 2dbe 7d7b 813d 0547 04bd fc07 bf3e
00000130: 5d67 36bc ee5c 1f3e 89f5 d63c b547 07be
00000140: ed6c f1bd 4b8b a53e fbcb ecbc 1c8f 3fbd
0.038026724 -0.21849383 -0.05864511 -0.2553377 0.016582694 -0.071337536 0.019916939 -0.3286741
-0.1596053 -0.231951 -0.09055265 -0.37736627 -0.30907968 -0.16209091 0.3151205 -0.26538548
-0.2091064 -0.41941884 0.238673 -0.27908742 -0.14503396 0.015734276 -0.3964836 -0.28248513
0.04214451 0.01256093 -0.02709353 -0.33361974 -0.09447812 -0.12348966 0.1962977 0.08823993
0.07857655 0.2186615 -0.047256168 -0.024545608 -0.13499834 -0.20353019 0.43925345 -0.07843866
0.31484452 -0.23741432 -0.146913 0.1260844 -0.104067914 0.07098662 -0.04714522 -0.010519048
0.0491679 -0.46925107 -0.020007368 -0.006863592 0.11743185 -0.19399884 -0.14140715 -0.10083651
-0.008664823 -0.062449344 -0.11032151 -0.09599019 -0.08847061 -0.15487039 -0.43487772 0.3725586
-0.17797768 0.10838024 -0.21628705 0.34711573 0.24899451 -0.32849982 -0.024243575 -0.029074764
-0.1690055 0.06322382 -0.032294292 0.3731078 -0.011133042 0.15562794 0.026240127 -0.13210948
-0.11788354 0.32332835 -0.02890586 -0.04676734

fc3.weight f4 [10, 84]
00000000: acce 993c e081 1fbe b731 223d b902 f2bd
00000010: b822 9ebc dc7d 883d aa7e 18be 7f0a bbbd
00000020: 3e0b c8bd 0764 413d 9a9c 103d cfe3 a7bd
00000030: a055 ef3d d1b7 1e3b 27c0 5fbe afcf 473c
00000040: c685 b33d 6520 a93c 7d40 9e3d fa6c 683d
00000050: aa0c fbbd c341 56be a17e 19bc 48ec 88bd
00000060: 15ff a23d 0dc4 a0be e69a 8f3d d46d 1fbd
00000070: 60c0 d0bd dc46 c53d ee2c 703d 5200 a4be
00000080: e0a3 be3d 6cd1 023e b32c babd 9ce1 873d
00000090: c55c 943c b21e f5bd 895c bd3d 85fd 033e
000000a0: af31 aabe cd14 bb3d e56b 1abe c59a 96be
000000b0: f087 49be 3ab9 df3c c17d 3abe bf39 b83d
000000c0: 2ecc 18be 4692 d13d 6fbf 3e3d 08b1 0abe
000000d0: 4cc5 4fbe f237 323d 848d 273d c8b9 353a
000000e0: 0430 e3be 1085 acbc 5c9d 0bbe 8568 65be
000000f0: 90bf 23be ff51 92bd 1172 df3d 69a9 b1be
00000100: b225 6bbe 1f0b 2dbe 2288 63be a42f 93bd
00000110: f2ad d93d 916e cc3d 536b a63d 0454 d13d
00000120: 1401 8f3c 7e65 cdbe 61bd d8bd e308 c8be
00000130: f05f ccbd 6dd1 73be b8c0 a13d aa3e c63d
00000140: 6941 b2bd 2141 d8be 821a 4f3d a0ff 12be
00000150: 9aca ec3d 38f8 23be 8cbf 3abe 9a1b 17be
00000160: 28f7 87be 2fd6 e63c 56a9 823c e64a b83c
00000170: 0a72 333d 0c21 26be c2ae 81be 91cf aa3d
00000180: 8b33 4dbe 7d8a 4dbe f995 783d b3da bcbd
00000190: 6ae7 0bbe 8eaa 7fbc 33a0 1a3e 7a22 84be
000001a0: bc1e f93c 5480 d13d 9016 ab3d fb1c 8cbe
000001b0: 467a a83c eabd 943d 6e8b cd3d bc5f 4ebd
000001c0: 33f8 c83d 1904 36be baf9 89be 1410 60be
000001d0: 4928 e83d 3eea dd3d 8a8c 62bd e55e 91bd
000001e0: 7a25 17be 840f 0f3d f5cb 043d 0034 01be
000001f0: 53d9 d8bd fb1b 8bbe 9825 903d 1b2e 193d
00000200: 88f5 1abe 2a33 8ebe 63b6 ebbd 7f10 0abe
00000210: d3e2 e33d c839 92be 2b9c 9f3d d022 483d
00000220: e339 6f3d 0324 c63d 776d 65be e733 4bbe
00000230: bd38 b8bc 0f5b bd3d 1b64 5fbe 445f 773d
00000240: 20f5 fe3d c4e2 543d caff 61be ad3b c83d
00000250: 1d5a ddbd 607d aa3d 0e9c d73d 9521 2cbe
00000260: 50ce bb3d 1ad2 47bd 8d69 31be 7e36 a6be
00000270: 7cee f1bd 1d1e 553d ccce 9bbd 0c90 663d
00000280: cef5 e13d eb6a 6dbe 5e75 36be 39fe 563d
00000290: f191 8c3d ddd2 c13d 60c4 30be f6e8 92bd
000002a0: 97ae 9fbd 8a3a cc3d d131 813d 3353 1abd
000002b0: 43a1 573d 4aac a43d 2dcd b73d 8bbc b3bc
000002c0: be93 f03d 9095 373d 75d9 62be a0b0 5e3d
000002d0: ef3b 9e3c 705a 6b3b cc18 56be 6b8e cfbd
000002e0: 1dee e2bd afab 013d 32bb 96bd d87b 733d
000002f0: 002a 813d 7205 c33d b4d9 9c3b 3bae 98bb
00000300: 2fb9 19bd d34f 1ebe 2508 27be f9a2 5d3d
00000310: d90b 7d3d 711f 863d 7ddb 33be 11eb 6b3b
00000320: fdfd 04be 1eba dfbd 4cda d5bd 2e67 4abe
00000330: b1c9 1bbd 69e1 ae3d c90c ac3d a7e8 2abe
00000340: 3d4e 54be a79c 8abe 84ed 14be cb09 7e3d
00000350: f482 9f3c 825c d2bd 868a cf3d 29e3 703d
00000360: 9584 b9bd 5866 5abe 31e8 f8bc c99e f0bc
00000370: 6d92 84bd 0f13 613d 13fc 5f3d 8ab4 26be
00000380: 889d febd c40b 08be b3e7 efbc ee38 dcbd
00000390: b3d7 bc3d cd71 aa3d e6c7 8d3d 6ced 71be
000003a0: 353c cabd 4564 af3d a590 afbd 46e0 fa3d
000003b0: d13e 86be 3976 dbbc 733d 223d a2d9 1c3c
000003c0: 46f5 003d ca1b adbd 2b74 4fbe 3db6 65be
000003d0: 446d ce3d bb33 b2bd cfff a53d bc60 883d
000003e0: ddf4 5a3d 98fe 00be 36dd 7c3d b82c 793d
000003f0: 55e3 bebe 643e a5bd 5b29 1a3b 154e 4dbe
0.018775307 -0.15576887 0.039598193 -0.118169256 -0.019303665 0.06664631 -0.14892069 -0.09132861
-0.09767769 0.047214534 0.035305597 -0.08197748 0.116862535 0.002421845 -0.21850644 0.012195512
0.0876575 0.02064533 0.07727144 0.056744553 -0.12258275 -0.20923524 -0.00936857 -0.06685692
0.07958809 -0.31399575 0.070119664 -0.0389231 -0.101929426 0.09632656 0.0586366 -0.32031494
0.093086004 0.127752 -0.09090557 0.066348284 0.018110642 -0.11968745 0.09246165 0.12889679
-0.3324103 0.09134827 -0.15080221 -0.29414955 -0.19680762 0.027310003 -0.18212034 0.08995389
-0.14921638 0.102329776 0.046569284 -0.13544095 -0.20290107 0.043510385 0.040906444 0.00069322856
-0.4437257 -0.021059543 -0.13634247 -0.22403152 -0.15991044 -0.07144546 0.10910428 -0.34699562
-0.22963598 -0.16898774 -0.222199 -0.07186821 0.106288806 0.09982026 0.08125939 0.10221103
0.017456569 -0.40116495 -0.10582996 -0.3906928 -0.09979236 -0.23810358 0.07898086 0.09679921
-0.08703882 -0.4223719 0.05056239 -0.14355326 0.11562081 -0.16012657 -0.18237132 -0.14756623
-0.26555753 0.028178303 0.015949886 0.022496652 0.043809928 -0.16223544 -0.25328642 0.083403714
-0.20039193 -0.2007236 0.0606899 -0.09221401 -0.13662496 -0.015604628 0.15100174 -0.25807554
0.030410163 0.10229555 0.08353913 -0.2736586 0.020566117 0.07262786 0.1003636 -0.05038427
0.09812965 -0.17775 -0.2694834 -0.21881133 0.11335809 0.10835694 -0.05530981 -0.07098178
-0.1476039 0.034926906 0.03242107 -0.12617493 -0.10588326 -0.27169785 0.070384204 0.037397485
-0.15132725 -0.2777341 -0.11509397 -0.13482855 0.11127248 -0.2855971 0.077934586 0.048861325
0.058404814 0.096748374 -0.22405039 -0.19844018 -0.022487992 0.09245884 -0.21815531 0.060393587
0.12449098 0.051974073 -0.22070232 0.09777007 -0.10808203 0.08324695 0.10527812 -0.16809686
0.0917021 -0.048784353 -0.1732542 -0.3246345 -0.118130654 0.05203067 -0.07607803 0.056289718
0.11033212 -0.23185317 -0.1781821 0.05248854 0.068637736 0.09464047 -0.17262411 -0.0717334
-0.07796972 0.09972103 0.0630833 -0.037677 0.052644026 0.08040674 0.08974681 -0.02194049
0.117469296 0.04482037 -0.22153266 0.05436766 0.019315688 0.003591206 -0.20907897 -0.10134586
-0.11080573 0.03165787 -0.073599234 0.05944428 0.06306839 0.09522523 0.0047866944 -0.0046594418
-0.03753012 -0.15460138 -0.163117 0.0541105 0.061778877 0.06548966 -0.17564197 0.0035998265
-0.12987514 -0.10924171 -0.104420274 -0.19765922 -0.038034145 0.08539087 0.08400876 -0.16690312
-0.2073297 -0.2707264 -0.1454373 0.062021058 0.019471623 -0.10271551 0.10133843 0.058810387
-0.09058491 -0.21328104 -0.030384155 -0.02937259 -0.06473241 0.054949816 0.054683756 -0.16279808
-0.124323905 -0.13285738 -0.029285287 -0.10753046 0.09220829 0.08322487 0.06922893 -0.23625726
-0.09874765 0.08564047 -0.08572511 0.12249808 -0.262198 -0.026789771 0.039609384 0.009573372
0.03148391 -0.08452566 -0.20259158 -0.224328 0.100794345 -0.08701273 0.08105432 0.066590756
0.053456176 -0.1259712 0.0617344 0.060833663 -0.37282816 -0.08068541 0.0023523185 -0.20049317

fc3.bias f4 [10]
00000000: ae48 da3e 310c f73e 7af1 233e 30d2 4bbe
00000010: 45ab bc3d 2c46 6cbd 305c 3bbe 1f04 b6be
00000020: ce00 033e 89b7 c7bd
0.42633575 0.4825149 0.16010085 -0.19904399 0.092123546 -0.05768411 -0.18296885 -0.3555002
0.12793276 -0.097518034
