target_model_overfitted.pth (torch, 250328 bytes, 10 tensors)

conv1.weight f4 [6, 1, 3, 3]
00000000: 6d4e a33e 2549 603e d50b 1cbe 609b 433e
00000010: 1ba8 ffbd 3ee6 a7bd d38e 093e 3b68 8c3d
00000020: 5251 263c 7758 913e c284 9f3d f67b 90bc
00000030: 4916 403c 4aad 623d 740d f43d 2709 8bbe
00000040: 9d4f f23c 0e88 9c3e fb0b 5fbe 2d8d 593e
00000050: aa0c 93be 0b1f 9bbe 297f 6f3c 68ac b8be
00000060: a919 72bd c5e7 afbe 2ad4 4f3e 2ca9 6c3e
00000070: 8b3a aa3e 7ea1 1dbe dd31 23be 28c5 183e
00000080: d12d 04bd 0b58 b53e d5a6 6dbe 6c9f 883c
00000090: 8393 48be affd 2d3c 43d0 703e 1c24 403e
000000a0: 040b 8abe b5df 9e3e 911d 53be dbde 81bd
000000b0: 9106 603e 98b7 013e e8c5 973c 3008 75be
000000c0: af25 8a3e b41f c7bd e65d 723e c900 01bd
000000d0: 2655 953e e32d 70be
0.31895772 0.21902902 -0.15238889 0.1910224 -0.124832354 -0.08198212 0.1343339 0.06855818
0.010151224 0.28387806 0.077889934 -0.017637234 0.011724063 0.055341043 0.119166285 -0.2715542
0.029578978 0.3057255 -0.21781914 0.2124526 -0.287206 -0.3029712 0.01461772 -0.36069036
-0.059106503 -0.34356514 0.20295778 0.23111409 0.3324779 -0.15393636 -0.1593699 0.14918959
-0.032270256 0.35418734 -0.23208173 0.01667758 -0.19587521 0.010619565 0.23516946 0.18763775
-0.2696153 0.3103005 -0.20616747 -0.063413344 0.21877505 0.12667692 0.018526986 -0.23928905
0.26981875 -0.09722844 0.23668632 -0.03149489 0.29166526 -0.23455004

conv1.bias f4 [6]
00000000: 7597 863e afe2 7d3e 07fe 91bc 49d6 88be
00000010: 1659 32be 10fb a93d
0.26287428 0.24793504 -0.017821325 -0.26725987 -0.17416796 0.082998395

conv2.weight f4 [16, 6, 5, 5]
00000000: 7e5e 39bc 8c86 61bd add7 833d 6693 dfbc
00000010: eb7c 96bd 1419 73bd 835d 1a3d 7370 9fbd
00000020: 0485 ef3c d079 abb9 690e 2cbd 6019 e9bb
00000030: adb7 b43c 6599 ce3d da63 fcbc b070 d63d
00000040: 27cc b63d fe45 d03d 4aed acbb 353f 3d3d
00000050: cd08 81bd 376a 843a a235 20bd 0787 9d3d
00000060: 20ff 8ebd a891 5f3c 8cdf 9abd 3511 6dbd
00000070: 1d74 0ebd e89c 4ebd fa92 aabd ea50 0abd
00000080: 77b7 453c 8ac3 45bd 4073 a63d ea3f 9d3d
00000090: 93ec ab3d 25ec 533d 4091 c33d 1504 063c
000000a0: a6a3 51bd a743 0a3d 12e3 49bd 8ef9 303d
000000b0: 5895 be3d 3b8b 453d b341 cf3d 4556 8e3c
000000c0: 6a62 a4bd f368 43bc 5606 d4bc 6c3a b7bb
000000d0: 5b79 933d 7b26 18bd 7426 d7bc 38a9 ae3d
000000e0: 0854 bd3b d87b f4bc b907 21bd 81c1 5d3d
000000f0: 1798 0d3d 1969 d5bc 2955 41bd fcde 973d
00000100: b984 0d3d de48 cd3d ab3c c83d a205 c43d
00000110: 885c 963d 9a05 ab3d 5e25 25b9 f3a4 c43d
00000120: a06c 00bd 6f8b c83d 0e04 003c 9d2c 27bd
00000130: a8b2 6f3d 17b8 80bc 23d7 523d a241 8cbc
00000140: 80db 81bc 52ba 90bd 5d27 6a3d 393c 87bd
00000150: 31ef db3b 7c5a f73c e83f d83b d927 7b3c
00000160: 295b ac3d f414 8ebd 9877 e6bc d2cc 5fbd
00000170: 1b1c 8e3d 24b2 7f3d b8f6 b03c 593f 14bd
00000180: e931 36bd 2fdb 67bd e331 0fbd 6f3f c33b
00000190: ab8a 20bd fc70 9bbd 9a39 243c b409 613d
000001a0: fc56 db3d 4eff 57bd 9079 41bc db25 ac3d
000001b0: f12c 1cbd 4419 d83d 1106 52bd 4b6d b0bc
000001c0: 89a1 8c3d 1eee 63bb 3812 f23d cb18 963d
000001d0: 505f bf3d 4164 18bd 99de 9bbd a1bf 073d
000001e0: d1c7 c9bd e819 ff3c 765e 9cbd cf9a 7cbd
000001f0: e8f3 f73d 31f0 c2bd 2726 9bbc 8556 b7bd
00000200: 9833 d8bd e93d a1bc a590 86bd 3471 0bbd
00000210: 55a0 37bc cc3f 873d 59c0 b7bc 2788 d5ba
00000220: 3760 3bbc 3d9b 1fbc 339a 32bc f361 9b3d
00000230: 03cc 22bd 09ea 86bc 808f 39bc e14c 8ebd
00000240: b728 963d f8ee 3cb8 888e 51bd a88d 65bd
00000250: 1856 67bd 3af9 a2bd 705e 82bd 0795 abbd
00000260: 66af e3bc 0993 69bd 59b4 3fbd 7fdf 9ebd
00000270: 305b aebd 0c91 653d 3b92 fe3b f311 a13d
00000280: ad05 abbd e332 ecbd 2442 a3bd a993 f03d
00000290: bb14 91bc 7b92 bd3c 6ce1 253d 4173 0f3d
000002a0: 635d 533c f798 333d bc1b a43d 1615 333c
000002b0: 1d3a ab3d cf0b e83d 4878 813d dfc1 44bd
000002c0: 8208 6fbd 5b56 963d 93f3 38bd fcbe babc
000002d0: 52f1 613c 17d0 bd3d fa5a 843d 3ab1 5a3d
000002e0: b35c e0bd cfd5 c8bd 3d88 31bd 2c24 873c
000002f0: 93c8 8c3d 726f 62bd e01b 26bd 6a66 823b
00000300: 9e8f 793d dca3 ac3d 562c 423d 5fc7 33bd
00000310: 3c40 7b3d dbf9 3c3d fe52 2bbc c335 86bc
00000320: 6db5 573c 262a 64bb 33d6 ba3c 185c ce3c
00000330: 7db7 193d 8d3b df3b 65f7 b33c 711b 03bc
00000340: d507 3ebd 79ae 6d3c 227d 76bc d82d b13c
00000350: fc5e 6ebc 7b61 373d e8b8 a13d 884f 0e3c
00000360: 5fee 203d 856d b3bd 478b d5bc f007 33bc
00000370: 85b4 3cbd 5a8d 70bd b096 e6bd c919 b23c
00000380: 6b17 8fbd 0446 be3d f60d f23c 2e74 c5bd
00000390: f030 6e3d b634 6d3c 211f bcbc 1327 a1bd
000003a0: c659 853c 7134 973c b6d8 2f3d 5fa0 35bc
000003b0: f33c 88bd c4e6 833d d293 e93c 909c 1dbd
000003c0: 9d59 b53d 37c7 4ebc dd06 a8bc 8b92 e63d
000003d0: 25df 843d cc87 163d 6e36 b63d 0f99 a73d
000003e0: a70b adbc f2f3 80bd 8968 1a3d d498 4abd
000003f0: 1086 dd3d 89a4 12bd 1a4b 96bd 2ec3 b4bc
-0.011314033 -0.055059955 0.06437621 -0.027291965 -0.07348045 -0.05935009 0.037686836 -0.0778512
0.029238231 -0.0003270642 -0.04200593 -0.0071136206 0.02206024 0.100878514 -0.030809332 0.10470712
0.08925658 0.101696 -0.0052773105 0.046202857 -0.06300507 0.0010102455 -0.03911365 0.0769177
-0.06982255 0.013645567 -0.075621694 -0.057877738 -0.034778703 -0.050442606 -0.08328815 -0.033768572
0.012067667 -0.048282184 0.08127451 0.07678206 0.08394732 0.051738877 0.095491886 0.008179684
-0.051181458 0.033755925 -0.049288817 0.043206744 0.09305829 0.048228484 0.10119953 0.01737512
-0.080265835 -0.011926877 -0.025881927 -0.005591681 0.07200881 -0.037146073 -0.026263453 0.0852837
0.0057778396 -0.02984421 -0.039314006 0.054139618 0.034568872 -0.026051091 -0.047200356 0.07415578
0.034550402 0.10023664 0.097771965 0.09571387 0.07341868 0.08350678 -0.00015749547 0.09601774
-0.031353593 0.0979222 0.007813467 -0.04081403 0.05851999 -0.01571278 0.0514747 -0.01712114
-0.015851736 -0.07066788 0.057166446 -0.066032834 0.0067118634 0.030194513 0.006599415 0.015329325
0.08415825 -0.0693759 -0.028133199 -0.05463869 0.069389544 0.062425748 0.02160202 -0.036193226
-0.04448119 -0.056605514 -0.034959685 0.0059584896 -0.039194744 -0.075899094 0.010023499 0.054940894
0.1070995 -0.052733712 -0.011808768 0.08405658 -0.038128797 0.10551694 -0.051275317 -0.02153649
0.06866748 -0.003477938 0.11819881 0.07328948 0.09344351 -0.037204985 -0.076108165 0.033141736
-0.09852565 0.031140283 -0.076352045 -0.061671074 0.12107068 -0.09518469 -0.01893909 -0.08952049
-0.10556716 -0.019682841 -0.065705575 -0.034043506 -0.01120766 0.06603965 -0.022430586 -0.0016291187
-0.011436514 -0.0097416015 -0.010901022 0.07587042 -0.039745342 -0.016469019 -0.011325717 -0.06948257
0.073319845 -4.504525e-05 -0.05116132 -0.056043297 -0.05647859 -0.079576924 -0.06365669 -0.08378034
-0.027793597 -0.05702499 -0.046802852 -0.07757472 -0.085134864 0.05604653 0.007768897 0.07864752
-0.08350692 -0.11533143 -0.079716 0.11746914 -0.01771008 0.023141136 0.040498182 0.035022024
0.012900683 0.04384705 0.080131024 0.01093032 0.083606936 0.11330377 0.0632177 -0.048036452
-0.058357723 0.0734069 -0.045154165 -0.022796147 0.013790445 0.092682056 0.06462665 0.053391673
-0.10955181 -0.09806406 -0.043342818 0.01649674 0.06874194 -0.055282064 -0.040553927 0.003979494
0.06092798 0.08429691 0.047405563 -0.043891307 0.061340556 0.04613672 -0.010456799 -0.016383057
0.013165814 -0.0034815161 0.022807216 0.025190398 0.037528504 0.006812519 0.021968553 -0.008002148
-0.046394188 0.01450693 -0.015044482 0.021628305 -0.014549013 0.0447707 0.07896596 0.008685954
0.03928983 -0.087611236 -0.02606739 -0.010927185 -0.046070594 -0.058728553 -0.1125921 0.021740811
-0.069868885 0.09290698 0.029547673 -0.096413 0.05815214 0.014477899 -0.022964062 -0.07868781
0.016278159 0.018457623 0.04293128 -0.011085599 -0.0665225 0.064404994 0.028512869 -0.038479388
0.08854983 -0.012620739 -0.020511085 0.112584196 0.06487874 0.0367506 0.088971004 0.081834905
-0.02112372 -0.06296529 0.03769735 -0.049462155 0.10816586 -0.035801444 -0.07338543 -0.022065725

conv2.bias f4 [16]
00000000: e2f4 703d bd98 a33d 49be 423c 0a74 debc
00000010: aeab 793d 15bb 363d 79ef 90bd a8dc 563c
00000020: 947d ad3b 337d de3d 0629 3d3c d3f6 2f3b
00000030: 0397 213d a76c 493c ea6d 553c 3b69 45bd
0.05882729 0.07988117 0.011886188 -0.027154941 0.060954742 0.04461201 -0.07076926 0.013114132
0.005294511 0.108637236 0.011545425 0.002685 0.039450657 0.012293971 0.013026694 -0.04819606

fc1.weight f4 [120, 400]
00000000: 6bf2 283d 93c9 02bc 4b55 203c 8ec3 263d
00000010: 8583 aabc 4149 50bc 214e ef3c 0fb4 65bd
00000020: 42e1 31bd a15e 1dbd 4661 99bc f789 fdba
00000030: 62f7 1dbd a99e 373d a919 28bc d8e8 663d
00000040: a57c bf3c 8f83 00bd a214 5d3b f9ed 3fbc
00000050: ce0a c6bb a191 ac3c 8d64 92bd 544d 983b
00000060: 8c5e 9cba 97c8 9abd 3c01 33bc b137 6d3b
00000070: 9a0a 663c 1c78 65bd 3a74 393c 859b 1e3d
00000080: 4f59 76bc 5286 6a3d 4df0 d33b b32a 643d
00000090: 5606 073d 1614 943b 19d6 473c bfdd 153d
000000a0: 9d8c 1dbd ac84 0dbd 38d4 78bd 5410 8f3c
000000b0: 3817 2f3d 43f2 34bb 2d63 03bd d66c e03c
000000c0: 9c94 f2bb 5856 8cbd 4158 9cbb d155 2b3d
000000d0: ac4c a93d b10b ad3c 13d0 df3c ab67 6cbd
000000e0: 844a fd3c 3aef 183d 0260 1dbc 7359 923b
000000f0: bab1 2f3d be2e 5e3d 4414 28bd d08a c9bc
00000100: 983f ffbc 509c 713d 5da3 9e3b 6e62 373d
00000110: a0de 283d f462 4d3d 3bd1 04bd 864d 053c
00000120: e9db 8b3c 5475 93bc 1b30 e43b bf36 dcba
00000130: 1ee8 d1bc 790b e6bb 7b5c 153d 7109 973c
00000140: d7fd b8bb d513 7dbb dafd f6bc 9719 a03d
00000150: a17f 3c3d 6e06 533c 65a4 ffbc 1df3 853d
00000160: 06ae 513b 2414 fcbc 08ae b03c a91c 61bd
00000170: 0e34 9c3c a365 47bd 3230 9cbc 3288 6eba
00000180: f0cc 033b 5212 67bd 1201 a0bd b70c 78bd
00000190: b877 2cbd 4c5e 423d a555 333d 9e29 423d
000001a0: b249 eabc e05d 503d 612b c63c 9e65 b4bc
000001b0: 98c8 b13c ac79 733c 3334 843c 79f2 7a3d
000001c0: bc81 bfbc b62e cfbc 8d9c db3c 089f ef3c
000001d0: aa37 ac3c 728c 06bd eb8a 2c3d 2e7f 6dbc
000001e0: afdd a9bd 3ea0 b5bc 834e d7bc 59c7 1d3d
000001f0: de70 473d 48d4 32bd 31b3 793c 7ba0 173d
00000200: 2a25 af3c 8494 aaba deb7 323d fa2a 243d
00000210: 4d20 f2bc b0f7 d93c 3864 27bd c4b0 c9bc
00000220: 30a9 3f3d 62e7 efba fd93 093d 528a f4bc
00000230: 752c a2bd 3b24 13bc 1fa4 16bb 2af9 653c
00000240: 6b45 df3c 90f1 d5bc 0999 3bbb c2cc f5bb
00000250: e38c ac3c b08d ae3c 9bb7 22bc 0ab0 183c
00000260: d873 5cbb d791 eb3c ff71 da3b d144 373d
00000270: 9282 033d 43af 36bd 6816 043d 4a17 b63c
00000280: cb5e ac3c 7244 45bd 1b50 96bc fe07 81bb
00000290: 9f61 f6bc 7e03 733b 3488 4a3c 551e 633d
000002a0: 7419 0cbc 3b29 b3bb e37d 7dbd 2493 1c3d
000002b0: 82ed 3a3a 9891 6ebc 5ae8 3abb c1a2 af3c
000002c0: 7dc4 463d fd12 623d f84e 3f3c 8834 8d3d
000002d0: 4abe 7a3c f948 73bd f200 c2bc a8ef 9cbc
000002e0: b3df 953c e262 993d b67a 1e3d 117d 16bd
000002f0: 9dfe 29bc df0b cd3c 632b 25bd 15b6 813d
00000300: 191c 93bc 2818 28bd 1c29 05bd 5687 8fbc
00000310: b695 ffbb e1d8 a43b a233 033d b6f7 49bd
00000320: 60ea 57bd ca78 693d 47ef 513a 85bc 9dbc
00000330: a997 3dbd a2c7 103c 8a64 133c 62a9 79bc
00000340: a59c 4e3d a18a 9bbd 2eb1 06bd d239 393c
00000350: fece d5bc 3629 623c dc23 7bbc 27f8 b3bc
00000360: eea4 953b 94fc d63c 3907 56bd 2573 1b3b
00000370: a1c6 57bc fe74 25bd 11cc c0bc 08a4 1abd
00000380: a573 5abd 9cf3 9ebc f287 47bc 6379 603d
00000390: 9044 0abb c0c6 5c3c 6277 d5bb 91de d3bc
000003a0: 8707 a33b 3785 543d 063d 8c3d fda3 c5bb
000003b0: c57b ca3c 7ca5 f8bc b7d6 ee3c 4d6d a9bc
000003c0: a76f 91bd 8c8e f1bc cb94 1fbd 2eff 253d
000003d0: 47bd a83c 7860 1c3d 8637 f13c 1a2e 943b
000003e0: ec4a ba3c 1e96 0bbd 9c35 5bbd eb93 8a3d
000003f0: de55 76bc 3568 81bb e448 553d 2458 5dbc
0.041246813 -0.007982629 0.00978596 0.04071384 -0.020814667 -0.012712778 0.02921206 -0.05607992
-0.043427713 -0.038420323 -0.018723141 -0.0019343485 -0.038566 0.044829044 -0.010260024 0.0563744
0.023374865 -0.031375464 0.0033734222 -0.011714452 -0.0060437685 0.021065535 -0.07148085 0.00464789
-0.0011930033 -0.07557791 -0.010925587 0.0036196525 0.014040614 -0.05602275 0.0113192145 0.038722534
-0.015035941 0.057257004 0.006467855 0.055704784 0.032965027 0.004518996 0.012197041 0.036588427
-0.038464177 -0.034550354 -0.060749263 0.01746384 0.042746753 -0.002761022 -0.032077003 0.027395647
-0.0074029695 -0.06852406 -0.004771263 0.041829888 0.08266577 0.021123739 0.027320897 -0.057716053
0.03091932 0.03733752 -0.00960541 0.0044662296 0.042894103 0.054243796 -0.04103495 -0.024602324
-0.031158254 0.05898696 0.0048412518 0.044771604 0.041227937 0.050143197 -0.0324261 0.008136159
0.017072635 -0.018000282 0.0069637424 -0.0016800984 -0.025623377 -0.0070204106 0.03646515 0.01843712
-0.0056454944 -0.0038616557 -0.030150343 0.07817381 0.046020154 0.012879951 -0.03120632 0.06540511
0.0031994595 -0.030771323 0.02156736 -0.054958973 0.01906779 -0.048680913 -0.01906595 -0.0009099274
0.0020111166 -0.056413956 -0.07812704 -0.060559 -0.04210636 0.04745321 0.04378285 0.04740297
-0.028599594 0.050870776 0.024190607 -0.022021111 0.021702096 0.014860552 0.016138172 0.061266396
-0.023377292 -0.025290828 0.026808048 0.029250637 0.021022636 -0.032848783 0.04212467 -0.014495654
-0.08294236 -0.022171136 -0.026282554 0.03852019 0.048691623 -0.04365948 0.0152404765 0.03701828
0.021380026 -0.0013014232 0.04363238 0.04008005 -0.029556418 0.026607364 -0.04086706 -0.024620421
0.04679221 -0.001830321 0.0335884 -0.029851113 -0.07918636 -0.008980806 -0.0022986007 0.014036456
0.02725478 -0.026116163 -0.0028625152 -0.0075012157 0.021063274 0.021307796 -0.00993147 0.009319315
-0.0033638384 0.028756065 0.0066664214 0.044743363 0.032106943 -0.044600736 0.03224793 0.022227902
0.021041295 -0.048160978 -0.018348744 -0.0039377203 -0.030075846 0.003708094 0.012361575 0.05544885
-0.00855099 -0.0054675615 -0.061887633 0.03822626 0.00071307283 -0.014561079 -0.002851984 0.021439912
0.04852723 0.05519389 0.011676542 0.06894785 0.0153041575 -0.059395764 -0.023682091 -0.019157246
0.018295145 0.074895635 0.038691245 -0.036740366 -0.010375646 0.025030075 -0.04032458 0.063335575
-0.017957734 -0.041038662 -0.032509908 -0.017520588 -0.0077998294 0.005030737 0.032031663 -0.0493085
-0.05271375 0.05699996 0.00080083724 -0.019254932 -0.046287213 0.008836659 0.008996138 -0.015238138
0.050442357 -0.07594801 -0.032883815 0.011305289 -0.026099678 0.013803771 -0.015328374 -0.021968914
0.0045667803 0.026243486 -0.05225298 0.0023719755 -0.013169915 -0.040394776 -0.023534806 -0.03775409
-0.053332943 -0.019403271 -0.012178408 0.054803263 -0.0021097995 0.01347512 -0.0065144757 -0.025862964
0.0049752626 0.051884856 0.06847577 -0.006031512 0.024717221 -0.030352347 0.029155118 -0.020682001
-0.07101374 -0.029486917 -0.03896026 0.04052656 0.020598067 0.038177937 0.029445421 0.0045220973
0.022740804 -0.03407871 -0.053517923 0.06766494 -0.015035121 -0.00394919 0.052071467 -0.013509784

fc1.bias f4 [120]
00000000: f92e 2fbd 8d21 d93c ec7a e73c cdc9 12bd
00000010: 976e 83bd 7ed1 6e3c 9f56 233c 07cd b03c
00000020: 5386 10bd 92b0 89bc 585c 1b3c 34a3 3b3d
00000030: 5591 e7bc da47 0d3d 6e20 1c3d d0fd cc3a
00000040: c097 58bd 16e3 2fbd 70bd 44bd 97cd 63bc
00000050: e2cd 903c 0569 173b aec1 6cbc d891 bf3c
00000060: 5ce6 7f3c bf6e b7bc 79fd cf3b c54a 85bc
00000070: 8660 8c3c 3b58 2b3c 33b5 343d 0aae 27bd
00000080: 3769 f6bc f2e9 bbbc 25be 013b 32f6 29bc
00000090: a50c 303b 6003 6abc dad3 98ba 1497 db3c
000000a0: 87e0 2b3d cbfb ce3c a77f 843d 9bb4 ca3b
000000b0: 0ef8 c0bc 5fc7 883c 2c6e 6f3b fa42 5e3c
000000c0: 072a 493d b123 d1bc 1ec6 56bd 8b7f 5fbd
000000d0: 6327 fbbc 12b7 1e3d 3286 143c 73b8 9abb
000000e0: 3897 ddbc d6c7 093d 4b1c 17bd c298 eb3c
000000f0: 4af7 08bd 70ee 12bd 89f0 1dbd 2088 03bb
00000100: df36 103d 2a08 583d 9474 61bb 4c97 933b
00000110: 14bf 883b 34eb ba3b f69f 6b3d 647d c0bc
00000120: a4a6 bfbc e45d 0e3d 507b 06ba 5299 81bc
00000130: 0664 543c cfb3 77bb 1c81 cfbb d9dc 11bd
00000140: 0c4a 16bd da24 0c3d 2f9c aa3c b15b 1fbc
00000150: f63b 8b3c 34b5 373d 0ae0 973d 8957 c0ba
00000160: a1db 26bc 16be 04bd fc36 fcbb ce55 5639
00000170: f740 36bc e9f5 cf3b d837 b3bc e082 15bd
00000180: 0323 073c fd07 173a e053 fd3c 9836 57bd
00000190: 4833 f33b 9e97 84bc 8052 5ebd 7759 193c
000001a0: 95f7 2b3d 0e06 2ebd 110a 033d 1a91 0fbd
000001b0: 2657 eb3a 3c12 c73c fb5f 26bd 7b66 d8bc
000001c0: 49d1 6b3c fc36 1ebd 7f20 f3bc c86e 313d
000001d0: 5e97 933c ca73 283d 013e 2f3d 5f2b 533c
-0.042769406 0.026505256 0.028256856 -0.035836983 -0.06417578 0.014576314 0.009969383 0.02158214
-0.03528435 -0.016807828 0.009482466 0.04580994 -0.028267542 0.03449235 0.038116865 0.0015639607
-0.052879095 -0.042941175 -0.048032224 -0.013903997 0.017676298 0.0023103368 -0.014450474 0.023384973
0.015618887 -0.022391675 0.006347355 -0.016271004 0.01713587 0.0104580475 0.044118118 -0.04093746
-0.030079467 -0.022938702 0.0019797173 -0.010373639 0.0026863005 -0.014283031 -0.0011659816 0.026805438
0.041962173 0.025266549 0.0646966 0.0061860806 -0.023555782 0.01669663 0.0036534173 0.013565773
0.049112346 -0.025529714 -0.052435033 -0.054564994 -0.03065843 0.03874881 0.009065198 -0.004721695
-0.027049646 0.033637844 -0.036892217 0.028759364 -0.03343896 -0.035871923 -0.03855947 -0.002007015
0.03520858 0.05274216 -0.0034401761 0.00450412 0.004173169 0.005704308 0.057525598 -0.02349729
-0.02339489 0.03475751 -0.00051300693 -0.01582018 0.012963301 -0.0037796383 -0.0063325297 -0.035611007
-0.03669171 0.034214832 0.020826427 -0.009726451 0.016996365 0.044850543 0.07415779 -0.0014674525
-0.0101842 -0.032407843 -0.0076969843 0.00020440595 -0.011123887 0.0063464534 -0.021877214 -0.036501765
0.008248094 0.0005761383 0.030923784 -0.0525423 0.0074218847 -0.016185578 -0.054277897 0.009359709
0.04198416 -0.042486243 0.031992022 -0.03505049 0.0017955049 0.024300687 -0.040618878 -0.026416054
0.014393159 -0.038626656 -0.029678581 0.04331854 0.018016513 0.04112605 0.04278374 0.012888758

fc2.weight f4 [84, 120]
00000000: 006e 92bd ccd8 5cbc c976 b8bd 7b8d bbbc
00000010: 14a1 1bbd 000a adbd 0551 603d f058 8e3d
00000020: 0cfc b73d 1c12 3ebb fe57 613d 79a0 23bd
00000030: b3c8 093d a088 72bd a808 e3bb ac55 51bd
00000040: a962 f23c ec0d 89bb 4624 443d 6b80 45bd
00000050: a759 883d 7668 a83d 2a21 b9bd d30e 8f3c
00000060: 11aa 3a3c 488a 55bc 1803 8ebd 73ec c2bc
00000070: f0f6 8bbd b1b9 a4bc dcaa 0cbd 761e f33c
00000080: 145c bdbd c705 70bd ec84 b83d 2834 583d
00000090: c5c4 41bb 8713 febc d85b 2ebd a548 92bd
000000a0: 927d ee3c ccad 743c 1585 2339 ece0 5abc
000000b0: 581c 833c 1e12 7d3d d2ca 8e3d b07b 83bd
000000c0: cb5c 09bd 163d 87bc 473c ea3c 70e2 5b3d
000000d0: 2a75 3cbc bb60 babd 67ec 683d f38a a6bd
000000e0: e735 b3bd 5a3d 8f3d 7fed 77bd 04f2 53bc
000000f0: 1e9a a03b cdab 213d 98b8 803c 1afd bd3c
00000100: f94a 763d 299f 3d3d fbfe 783c 4dcc 803d
00000110: 2a66 e9bc 97a0 92bd 7094 cabc 718d 91bc
00000120: a392 4f3d 58ad 163d 33aa 0a3c 4d39 b7bd
00000130: e1c5 18bc efd1 863d 1741 1d3d 3d3f 1cba
00000140: fcbc c7bc aea8 c5bd 49c4 473d 143d 963d
00000150: 13d2 87bd 6e81 8c3d b008 4a3d 4322 8b3d
00000160: 3879 c93c ac44 353d 05af 143d 7390 a6bd
00000170: a471 f63b 6b13 a2bd 7507 473d 2fcd 893d
00000180: a0c3 67bd 36a5 85bc 755c 0b3d b1ce 8abd
00000190: 293e ebbb 6994 1e3d 67c6 1f3d 2b94 b43d
000001a0: f5d7 753c 24fb 55bd 2b1f 3f3d 92d5 1cbd
000001b0: 7942 65bd a810 81bd 8545 2e3d ca07 77bd
000001c0: 48b5 953d 9a07 f73c 053b 95bb db16 5cbd
000001d0: 2536 2ebd f41b 80bd 3bd1 50bd c5c2 99bc
000001e0: 5ec2 0fbc 27bb f3bc 5652 933d 473c ea3d
000001f0: 3e0d 93bd e8d1 8ebd 703a 81bb 56ce 98bd
00000200: 3388 8e3d a2e7 e1bd 752a 41bb df1c e13c
00000210: 89d1 5b3d 59f0 5a3c 57cd cb3c bc34 b53c
00000220: b3d2 8abd b93d a33c 21e0 5fbd f85a 8c3d
00000230: 5d48 be3d 237d 1cbd 2f5e a3bd 1647 d33d
00000240: 3dd6 823d 8d58 7a3d d1e0 1f3d 6d15 4abc
00000250: 55dd 623d 3635 b13a d9b5 053c 1aa4 dd3c
00000260: 9289 e43d 2367 57bd 4804 6d3d e732 75bd
00000270: a23f d5bc 5b62 91bd 32fa c03d 7e8d 36bd
00000280: 033a 25bd df4b d7bd cbda 96bd 2a10 763d
00000290: c79f 76bd 0226 213d d2bb a53d 6603 e43d
000002a0: 632d f8bc abfc 4fbd 6284 d5bd a67c 573c
000002b0: 3e2d eebc fbd9 853c a1ff 6d3d 8b62 c0bb
000002c0: c0c5 9a3c 7af1 6e3d 6680 8dbd f6ce 94bd
000002d0: 1a8f 5e3d a4fd 9c3c 4a9d 8a3c 90fd 52bd
000002e0: 4894 b13d c175 a53c b2b0 20bd 1ee2 43bd
000002f0: cedc 00bd 445d 883c 09e7 963d 8a35 a8bd
00000300: 52fa 9abc fcbd 29bd 0a06 083d a1bf 133d
00000310: e9c0 583d 7a0c 15bd b9a1 d6bd 9284 b93d
00000320: 66ff 8d3a 802c bc3d f4d0 373d 20c3 8e3c
00000330: 10e9 5539 6d6c d6bd 25b6 ae3d 7b2d f53d
00000340: 6345 5cbd 7beb 58bd b0c5 723d f434 923d
00000350: b5da 3dbd fcec ffbb ce7c d7bb 0bb8 91bd
00000360: 698c e9bd 91cc 81bd 65cd d7bd 403e 5e3d
00000370: dc6d 36bc af94 363d a8e6 7f3d 7423 873d
00000380: cd6f 2c3b 0c30 3a3d a97a 6e3d d22e e43d
00000390: 5124 09bd f607 0fbd 3b39 6cbc 51b0 ce3d
000003a0: 358d 5abd c79f 7cbd 47be 3f3d 248c 813d
000003b0: ce0a b5bd bd48 113d 846e c73d fea1 4fbd
000003c0: 0626 143d d55e 5d3d fad1 193c 566b f13d
000003d0: 3b0b 32bd 54d9 6cbd b2d2 61bc c78a d9bd
000003e0: 3aa5 85bc c3bc a7bd c1df 8fbd 0ad4 c43d
000003f0: 1a7b c63d f4a9 3d3d 1e31 8b3d a448 abbb
-0.07149887 -0.013479423 -0.090070315 -0.022894612 -0.037995413 -0.08449173 0.054764766 0.06950557
0.08983621 -0.0029002493 0.055015557 -0.03994796 0.033638667 -0.059212327 -0.006928522 -0.051107094
0.02958806 -0.004182568 0.047886156 -0.048218172 0.06657725 0.08223049 -0.09039529 0.017463123
0.011393086 -0.013033457 -0.06934184 -0.023794388 -0.06834209 -0.020108076 -0.03434263 0.02967761
-0.09246078 -0.05859926 0.09009728 0.052784115 -0.0029566747 -0.03101517 -0.042568058 -0.07142762
0.029112611 0.0149340145 0.00015594468 -0.01335929 0.016004726 0.061784856 0.06972279 -0.06420076
-0.03353576 -0.01650862 0.028593196 0.053682745 -0.011502543 -0.09100481 0.056866076 -0.08131971
-0.087505154 0.06994124 -0.06052923 -0.012936119 0.0049011847 0.039470483 0.015713021 0.023191977
0.060130093 0.046294365 0.015197511 0.06288967 -0.028491098 -0.07159536 -0.024728984 -0.01776764
0.050676953 0.036786407 0.00846343 -0.08946476 -0.009324522 0.065830104 0.038392153 -0.0005960351
-0.024382107 -0.09651314 0.048771176 0.073358685 -0.06631865 0.06860624 0.04932469 0.06793644
0.024593934 0.044254944 0.036299724 -0.0813302 0.0075208712 -0.0791386 0.048591096 0.06728589
-0.056583047 -0.01631413 0.03402372 -0.067777045 -0.007179041 0.038715754 0.03900757 0.08817323
0.015005101 -0.05224146 0.046660583 -0.038289614 -0.055971596 -0.06302005 0.042546768 -0.060310163
0.07309967 0.030154992 -0.004554155 -0.053732734 -0.042532105 -0.06255332 -0.050980788 -0.018769631
-0.008774368 -0.029752327 0.07193439 0.11437278 -0.0718026 -0.0697363 -0.003943734 -0.074612305
0.06959572 -0.110305086 -0.002947477 0.027479587 0.053666625 0.013362967 0.024878187 0.022119872
-0.06778469 0.019926893 -0.054657105 0.068532884 0.09291146 -0.038205277 -0.079769485 0.10316293
0.06388519 0.061119605 0.03903276 -0.01233421 0.05538686 0.0013519886 0.008161032 0.027055789
0.11159052 -0.052588593 0.05786541 -0.059862997 -0.026031319 -0.07098838 0.09422721 -0.04456853
-0.040338527 -0.10512518 -0.0736595 0.06007401 -0.06021097 0.039342888 0.080924645 0.11133461
-0.03029508 -0.050778072 -0.10425641 0.013152277 -0.029074308 0.016339293 0.058105115 -0.0058711222
0.018893123 0.05833576 -0.06909256 -0.07266037 0.05433569 0.019163914 0.016920704 -0.051511347
0.086708605 0.020197751 -0.03923101 -0.047823064 -0.031460576 0.016646035 0.07368285 -0.08213337
-0.01891819 -0.04144095 0.033208884 0.036071423 0.05291835 -0.03638885 -0.10480065 0.09058489
0.0010833561 0.09188175 0.044877008 0.017427027 0.00020400085 -0.10469899 0.08530835 0.11971565
-0.05377711 -0.052958947 0.05927056 0.07139006 -0.046351153 -0.007810233 -0.006576157 -0.071151815
-0.11403734 -0.06337846 -0.10537223 0.054258585 -0.011134591 0.04457539 0.06247583 0.06598559
0.0026311756 0.045455977 0.058222447 0.11141743 -0.0334819 -0.0349197 -0.014417942 0.100922234
-0.05335732 -0.061675813 0.046812322 0.06325558 -0.088399515 0.03546976 0.09737876 -0.050691597
0.036169074 0.054045517 0.009388441 0.11788051 -0.04346774 -0.057824448 -0.013783144 -0.10622173
-0.016314138 -0.081903 -0.070250995 0.09610756 0.096914485 0.046304658 0.06796478 -0.0052271653

fc2.bias f4 [84]
00000000: bd2a 6d3c ffe4 873d 9527 7d3d bf86 50bc
00000010: 0db7 683d aa9c 873d e644 6fbd bd04 0bbd
00000020: da3e 78ba c95d 29bc ddaa a9bd 0631 babd
00000030: d142 2bbd b41b 4dbd a45f 843d 33d3 ea3a
00000040: 2a53 cd3d e371 cc3c a450 d4bb 7cb6 873d
00000050: db39 6b3d 9de4 dbbc 3a97 84bb d318 c1bc
00000060: d440 823d 80b3 ba3d 9f74 903c bda1 9b3c
00000070: 6333 94bd 416a 863d b2da b6bd 945b 88bc
00000080: 291d fa3c 7f19 6a3d 78fe 813d c5da 883d
00000090: ee33 9abd 18a2 063d 39f5 493d 8011 0ebd
000000a0: 0969 d93c 9d48 7db9 5037 c83d 3794 023d
000000b0: df38 8bbd 6a39 17bc 6912 9abc 8ead afbc
000000c0: 71be 2a3d 4283 f5bb bc77 da3c d03b 9d3b
000000d0: c1ec 86bc a44d 16bd ea01 84bd 08d7 adbd
000000e0: 9783 b53d e0be 17bd 1363 123b b958 7b3d
000000f0: df78 a63c 8cf4 6f3c 6c4c a53c ddda 9a3d
00000100: 4a88 ac3d d70e c03d 1cd2 36bc da0a b13d
00000110: 4fa3 583d bd25 f43c 374b 2dbd 3406 a83d
00000120: eb56 2e3d c85d 3e3d 6754 80bd caa5 c3bc
00000130: cebd 7bbb 93b2 6dbd bf5e a6bd 8098 7cbd
00000140: 0226 983d 7e64 8bb9 0242 7cbd 3dce 80bd
0.014475522 0.066354744 0.061805326 -0.0127274385 0.056815196 0.06621678 -0.058415316 -0.033940066
-0.0009469815 -0.0103373015 -0.08284543 -0.09091382 -0.041811768 -0.050075248 0.064635545 0.0017915725
0.10025628 0.02495665 -0.0064793397 0.06626603 0.057428222 -0.02684241 -0.004046348 -0.023571407
0.06360021 0.09116268 0.017633734 0.018998021 -0.07236364 0.06563235 -0.089284316 -0.01664523
0.030531483 0.05715322 0.06347364 0.06682352 -0.07529436 0.03286943 0.04930613 -0.034684658
0.026539342 -0.00024155011 0.09776175 0.03187963 -0.06797957 -0.009229997 -0.018807607 -0.021445062
0.041685525 -0.007492454 0.026668422 0.00479839 -0.016470315 -0.036695138 -0.064456776 -0.084882796
0.088629894 -0.037047267 0.0022336885 0.06136391 0.020321308 0.014645707 0.020178042 0.07561276
0.084244326 0.093778305 -0.011158492 0.08644648 0.05289012 0.029803151 -0.04230806 0.08204308
0.04256336 0.046476156 -0.062660985 -0.023882765 -0.0038412693 -0.05803163 -0.0812354 -0.061668873
0.074291244 -0.00026587019 -0.061586387 -0.06289337

fc3.weight f4 [10, 84]
00000000: a336 6dbd 09f0 eabd e94a 14bc 2735 763d
00000010: 36d9 28bd 3a61 25bd f3c2 023d dddd e2bd
00000020: 9813 2f3d afdc 15bd 9af0 983d 2998 e13c
00000030: 55e5 4e3d acca 49bd ac5f 85bd dfab 73bd
00000040: 55c7 49bd 2872 11be b4b4 00bd 7795 cbbd
00000050: d4ba c13d da99 a0bd 211a 743d 834b df3a
00000060: 6ece db3d 70f6 49bd 24f1 fa3d 7bc9 68bd
00000070: 15dc 4d3c 09f4 3cbd 9f06 863c c13f a43d
00000080: 96a7 07be 66da c33d 2b92 b63d bfee dcbd
00000090: 56e8 4ebd 161f cbbd 8627 22bc 1050 0abe
000000a0: 0b1f 0c3e d5f4 873c 0e01 b5bd 9c64 0cbe
000000b0: 103b 073d e87a 57bd 00b7 c7bc 792c 92bc
000000c0: 6228 f5bd 5c0e b2bd 2dd0 733d 5356 4bbd
000000d0: 24bb c4bd a9a2 14bd 6a6b 26bd c604 d03c
000000e0: 731a 45bd a966 883d 5a6d acbd 8c4f 153e
000000f0: 0cfd 08be c178 883c 8c77 273d 2033 f9bd
00000100: eb7e 63bd 0f0d a13c d5f1 2ebd fa0a 1b3d
00000110: 3d25 ab3d d810 cabd 212f e5bb d1bd 7ebd
00000120: f453 263d c0da 933d 3fd0 a33d bfae 05be
00000130: 3273 d0bd 5463 b63d 4a45 793c d0c1 77bd
00000140: 62f5 2dbc 038b 513d b92a f83d 19f1 8a3d
00000150: c265 1abd 23ac b9bd cdb1 8cbd df39 f33d
00000160: ab4c dbbd 73e7 a63c 52da 2f3d 7b2d a43c
00000170: 2a17 073e 81e3 bd3d 25ad 0dbe d783 2cbd
00000180: 0ec4 d73c 41c6 8a3d a0e4 fcbd 0f4f 3abb
00000190: e38c b53d a420 f83d 9067 913d a243 ec3c
000001a0: e11e 62bc e5d3 c6bd 3b90 bcbd 806a 8a3c
000001b0: 47bb bcbd 2182 89bd 03f8 63bd 7e8d c53d
000001c0: 60a6 16bd f27e ab3d b03a ad3d b7df 973d
000001d0: 6296 83bd ae4d 933d 9351 7bbd 3416 00be
000001e0: 4ba0 afbd 0ad9 a0bd 940c 2fbd c9bc 2f3c
000001f0: 7425 8ebd 0b04 e0bd 4dcb 7c3c a1f6 31bd
00000200: 0703 babc fdd6 9e3d 035c 50bc 52dd 9f3c
00000210: 84fe 323d d07e 773d d3a7 a33c ad58 543d
00000220: 424e 303d 1806 b4bd e240 6c3d 5921 0bbd
00000230: 2003 e33d 9781 b8bd 5e69 203d f2b3 acbd
00000240: 114b e53d 6459 ab3d b581 06be dfe8 2cbc
00000250: 4859 17be a9a6 403d 96f8 e3bc dd04 95bd
00000260: 0c9f f7bd 46c8 adbd 44a1 d93d 3e41 d6bc
00000270: bc72 bdbd 9adc 2d3c 6e47 0abe 404f 64bd
00000280: 75d1 543d f3de 9d3d 0aa3 99bd 4a6b 15bd
00000290: 560c 09bd cd2c c9bd e017 d2bc 19e6 d43d
000002a0: ce2f 54bd a219 453d 7d39 b33c d09e 08bd
000002b0: 3817 bcbd 8929 98bd 75c0 f23c 0ad7 b0bc
000002c0: ff28 c1bd 24ed 33bd d202 90bb 7e1d 1bbc
000002d0: 5410 b8bd e734 b9bd 4961 7ebd 388a debb
000002e0: 442b fbbd f72e 54bd ba6e 07bd 8200 ccbc
000002f0: 5ffc 99bd e129 88bc ca32 53bd d3b1 07bd
00000300: 807a 9c3c 81c7 0bbd e091 20bd 9def 54bd
00000310: 83fa 343d a999 e03c ccb5 de3d 712b 81bc
00000320: 3099 073e 83e3 ac3d 5768 74bd 6153 8f3d
00000330: 8ae7 edbd 374b 96bc a5dc 9fbd 4750 febd
00000340: d09e b5bd d20f 4ebd ec94 0e3e aafb bcbd
00000350: 60f6 223d cb20 2ebd c0da 3abd f682 8b3d
00000360: 0b67 ce3b 620c afbd d7cf 093e b982 cfbc
00000370: 2c00 3bbd f11f d43d f7f4 ae3c f192 d93d
00000380: e468 e7bd f97b fcbd 7e95 f9bc 46e0 46bd
00000390: 02ca 7e3d 8bad 563d d2df adbd d461 f5bd
000003a0: 7fcf 0a3e b3bb fd3d ee69 ca3c 04a6 953d
000003b0: 7816 733d d98d 65bb 5ed5 9bbd b6cf 1abc
000003c0: 1268 b53d af15 d93d 5b5f d23b b666 463d
000003d0: 4496 e1bd f3bb c93d 277a c3bd 3922 e0bd
000003e0: bf7a 90bd 4e7f ca3d 53cd a03d 0f93 4c3c
000003f0: e419 643b 2acf d5bc 5a86 53bd 48dd f73d
-0.057913434 -0.11471564 -0.009051063 0.060109284 -0.041222773 -0.040375926 0.0319242 -0.11077473
0.042743295 -0.036587413 0.07467766 0.027538376 0.050511677 -0.04926555 -0.065123886 -0.05949008
-0.049262363 -0.14203703 -0.031422332 -0.099406175 0.09459463 -0.07841845 0.05959523 0.0017036054
0.10732733 -0.049307287 0.12253025 -0.05683277 0.012564679 -0.046131168 0.016360579 0.080199726
-0.13247523 0.095631406 0.08914598 -0.10787725 -0.05051454 -0.099180385 -0.009897118 -0.13507104
0.13683717 0.016596237 -0.08838092 -0.13710254 0.03301531 -0.052607447 -0.024379253 -0.017843472
-0.11970593 -0.08694145 0.059524704 -0.049642872 -0.09606007 -0.036287937 -0.04062978 0.025392901
-0.048120927 0.06660206 -0.08419295 0.14581126 -0.1337778 0.016659142 0.040885493 -0.121679544
-0.05554096 0.019659547 -0.042711098 0.037852265 0.08356712 -0.09866494 -0.0069941436 -0.06219274
0.040607408 0.072194576 0.07998704 -0.13054942 -0.10178222 0.08905664 0.015214274 -0.06048757
-0.010617586 0.051157963 0.12117524 0.06784267 -0.0376947 -0.090660356 -0.0686985 0.118762724
-0.10707983 0.020374035 0.042932816 0.020041218 0.1319243 0.092719086 -0.1383558 -0.04211792
0.026338603 0.06776095 -0.12348294 -0.002842847 0.08864763 0.12115601 0.07099831 0.028840844
-0.013801307 -0.097083844 -0.09207197 0.016896486 -0.09215408 -0.06714273 -0.055656444 0.09646128
-0.03677976 0.08373822 0.084584594 0.07415717 -0.064251676 0.071925506 -0.061357092 -0.1250847
-0.08575495 -0.07853897 -0.042736605 0.010726162 -0.06940737 -0.10938271 0.01542933 -0.043448094
-0.022706522 0.077558495 -0.01271725 0.019514713 0.043699756 0.060423672 0.019977486 0.05184238
0.043043382 -0.08790225 0.057679065 -0.03396735 0.110845804 -0.09009092 0.039162986 -0.08432759
0.111959584 0.08366659 -0.13135417 -0.010553568 -0.14780152 0.04703394 -0.027828496 -0.07276318
-0.12090883 -0.08485465 0.10626462 -0.026154157 -0.092503995 0.010611678 -0.13503811 -0.05573964
0.051957566 0.0770854 -0.075018 -0.036479272 -0.03345903 -0.09822998 -0.02564615 0.1039545
-0.051803403 0.04812015 0.021877998 -0.03335458 -0.09184116 -0.07429797 0.029632786 -0.021586914
-0.094316475 -0.043927327 -0.0043948675 -0.009467481 -0.08987489 -0.090432934 -0.062104497 -0.0067913793
-0.12264112 -0.0518026 -0.03306458 -0.024902586 -0.07518839 -0.016621532 -0.051562108 -0.03312857
0.019101381 -0.03412581 -0.039201617 -0.051986326 0.04418422 0.02741702 0.10874519 -0.015767785
0.1324203 0.08441832 -0.05966982 0.06998325 -0.11616428 -0.018346412 -0.078057565 -0.124176554
-0.08868182 -0.050308056 0.13923997 -0.092276886 0.039785743 -0.042511743 -0.045618773 0.06812088
0.006298905 -0.08547284 0.13458191 -0.025330888 -0.04565446 0.10357655 0.021357043 0.1062373
-0.11299303 -0.123283334 -0.030466791 -0.048553728 0.06220437 0.052411597 -0.08489956 -0.1198155
0.13555716 0.123893164 0.024708714 0.073070556 0.0593476 -0.0035027175 -0.07609056 -0.009448936
0.088577405 0.10599839 0.0064200587 0.048437797 -0.11014989 0.098503016 -0.09544783 -0.109440275
-0.07054662 0.09887563 0.078516625 0.012486233 0.003480547 -0.02609976 -0.0516418 0.12102753

fc3.bias f4 [10]
00000000: 4cbc f9bc ce49 b0bd 6e1c 25bd 5482 723d
00000010: 8567 49bd d1dd 133c 4087 27bc 698c 9eba
00000020: 0b75 bb3c 86ee 9a3d
-0.030485295 -0.08607827 -0.040310316 0.05920632 -0.04917099 0.009025053 -0.010225117 -0.0012096289
0.022882959 0.07565026
